…
        "id": "Qw5uIw--ClKT",
        "colab": {
          "base_uri": "https://localhost:8080/"
        },
        "outputId": "fbdaf3d0-8242-459c-86b3-a6f252970543"
      },
      "outputs": [
        {
          "output_type": "stream",
          "name": "stdout",
          "text": [
            "Model: \"sequential_1\"\n",
            "_________________________________________________________________\n",
            " Layer (type)                Output Shape              Param #   \n",
            "=================================================================\n",
            " conv2d_10 (Conv2D)          (None, 75, 75, 128)       3584      \n",
            "                                                                 \n",
            " conv2d_11 (Conv2D)          (None, 73, 73, 128)       147584    \n",
            "                                                                 \n",
            " max_pooling2d_4 (MaxPooling  (None, 36, 36, 128)      0         \n",
            " 2D)                                                             \n",
            "                                                                 \n",
            " conv2d_12 (Conv2D)          (None, 36, 36, 128)       147584    \n",
            "                                                                 \n",
            " conv2d_13 (Conv2D)          (None, 34, 34, 128)       147584    \n",
            "                                                                 \n",
            " max_pooling2d_5 (MaxPooling  (None, 17, 17, 128)      0         \n",
            " 2D)                                                             \n",
            "                                                                 \n",
            " conv2d_14 (Conv2D)          (None, 17, 17, 128)       147584    \n",
            "                                                                 \n",
            " conv2d_15 (Conv2D)          (None, 15, 15, 128)       147584    \n",
            "                                                                 \n",
            " max_pooling2d_6 (MaxPooling  (None, 7, 7, 128)        0         \n",
            " 2D)                                                             \n",
            "                                                                 \n",
            " conv2d_16 (Conv2D)          (None, 7, 7, 64)          73792     \n",
            "                                                                 \n",
            " conv2d_17 (Conv2D)          (None, 5, 5, 64)          36928     \n",
            "                                                                 \n",
            " max_pooling2d_7 (MaxPooling  (None, 2, 2, 64)         0         \n",
            " 2D)                                                             \n",
            "                                                                 \n",
            " dropout (Dropout)           (None, 2, 2, 64)          0         \n",
            "                                                                 \n",
            " flatten (Flatten)           (None, 256)               0         \n",
            "                                                                 \n",
            " dense (Dense)               (None, 512)               131584    \n",
            "                                                                 \n",
            " dropout_1 (Dropout)         (None, 512)               0         \n",
            "                                                                 \n",
            " dense_1 (Dense)             (None, 256)               131328    \n",
            "                                                                 \n",
            " dropout_2 (Dropout)         (None, 256)               0         \n",
            "                                                                 \n",
            " dense_2 (Dense)             (None, 32)                8224      \n",
            "                                                                 \n",
            " dense_3 (Dense)             (None, 2)                 66        \n",
            "                                                                 \n",
            "=================================================================\n",
            "Total params: 1,123,426\n",
            "Trainable params: 1,123,426\n",
            "Non-trainable params: 0\n",
            "_________________________________________________________________\n"
          ]
        },
…
